small_robot/data.pth (torch, 5482 bytes, 6 tensors)

l1.weight f4 [8, 53]
0	0x3ea96c18	0.3309028
1	0x3da5fa6f	0.08104407
2	0xbe56a588	-0.20961583
3	0xbc8e39ea	-0.0173616
4	0xbea459c3	-0.32099733
5	0xbe5e313c	-0.21698469
6	0xbec9f336	-0.39443368
7	0xbd80ec2b	-0.062950455
8	0xbe5be6a9	-0.21474709
9	0x3f00a313	0.5024883
10	0x3dcd7421	0.100319155
11	0x3f0f12a7	0.55887836
12	0xbdefe323	-0.11713245
13	0x3f105a53	0.56387824
14	0xbea45c2b	-0.3210157
15	0xbca2787e	-0.019832846
16	0x3df886ff	0.121351235
17	0x3f15e629	0.5855432
18	0x3e9fd7e6	0.31219405
19	0xbe28349e	-0.16426322
20	0xbe735690	-0.2376349
21	0xbd4b29d8	-0.049600452
22	0xbe753983	-0.2394772
23	0xbdb89a18	-0.09013766
24	0x3f2d2007	0.67626995
25	0x3df47191	0.119357236
26	0xbe3eee67	-0.18645631
27	0xbdb13c7e	-0.08654116
28	0x3f075c53	0.5287525
29	0xbd060f16	-0.03272923
30	0xbe5c6d04	-0.21525961
31	0xbdf0f662	-0.11765744
32	0xbe1c998c	-0.15292948
33	0xbe42aa3f	-0.19010256
34	0xbe46cbd6	-0.19413695
35	0x3f0725c4	0.52792
36	0xbcab780c	-0.020931266
37	0x3e5a5970	0.2132318
38	0xbdcdd8b6	-0.100511
39	0x3f24c53b	0.6436345
40	0x3e2d377f	0.16915701
41	0x3a7efa00	0.0009726584
42	0xbe4e95b6	-0.20174298
43	0x3f01c645	0.5069316
44	0xbe58f3b2	-0.21186712
45	0xbe151977	-0.14560495
46	0xbcd06dd1	-0.02544299
47	0x3ec22ec3	0.379263
48	0x3eb3fff6	0.3515622
49	0x3f0b505c	0.54419494
50	0x3ed5439d	0.41653147
51	0x3ebd832a	0.37014133
52	0x3f0c3cc2	0.5478021
53	0x3f0d80a3	0.5527441
54	0x3f01fb88	0.5077443
55	0xbe1151f7	-0.14191423
56	0xbe0ce4b2	-0.13759115
57	0xbed0d84c	-0.4079002
58	0xbdb372e7	-0.0876215
59	0xbd9b9bd8	-0.07598084
60	0xbe11854f	-0.1421101
61	0xbe657143	-0.22406487
62	0x3ea73a37	0.32661602
63	0xbe649067	-0.2232071
64	0x3ebb2b32	0.36556393
65	0x3e4c4285	0.1994725
66	0x3ea314ce	0.3185181
67	0xbea45044	-0.32092488
68	0xbde33b5a	-0.11095305
69	0x3ef8a6bb	0.48564705
70	0x3eb04c12	0.34433037
71	0xbc8debb5	-0.017324308
72	0xbda5c8ca	-0.08094938
73	0x3e3f321f	0.18671463
74	0x3d70b5bb	0.05876706
75	0xbe0cc920	-0.13748598
76	0xbeb3b55a	-0.35099298
77	0x3e91f47c	0.2850684
78	0x3e7c8b66	0.24662551
79	0xbe93b180	-0.2884636
80	0x3de0e05e	0.10980295
81	0x3eb1e10f	0.3474202
82	0xbe15ae61	-0.14617302
83	0xbe117d7a	-0.14208022
84	0xbd8fddf6	-0.070247576
85	0xbe3712e7	-0.17878304
86	0xbe842fa7	-0.25817606
87	0xbe5a61fb	-0.21326439
88	0x3e69a247	0.2281581
89	0x3e5b9d49	0.21446718
90	0xbe058e64	-0.13042599
91	0x3d816fbd	0.063201405
92	0x3f59066f	0.8477544
93	0x3e88e922	0.26740366
94	0xbb80492b	-0.0039149723
95	0xbe5d1736	-0.21590886
96	0x3e1a7396	0.15083155
97	0xbe73e55f	-0.23817967
98	0x3d149045	0.0362704
99	0x3e72438e	0.23658583
100	0xbe483fb1	-0.19555546
101	0x3b6c5331	0.0036060328
102	0x3c0c7653	0.008573133
103	0xbd38a262	-0.045076735
104	0xbde3be25	-0.111202516
105	0xbd9ecc37	-0.07753795
106	0x3e779642	0.24178413
107	0x3f1795cf	0.59212965
108	0x3f4acd42	0.7921945
109	0x3f229738	0.6351199
110	0xbf1cd4d3	-0.61262244
111	0x3f206197	0.6264891
112	0x3f2741ea	0.6533495
113	0x3f06282b	0.5240504
114	0x3f1f0c67	0.621283
115	0xbeb284fb	-0.3486708
116	0x3eee9b22	0.46602732
117	0xbe8c10e3	-0.27356634
118	0x3f2bcbaa	0.6710764
119	0xbe869d49	-0.26291874
120	0xbef69187	-0.48157904
121	0x3d42074b	0.047370236
122	0x3e8ca3e5	0.27468792
123	0xbeb04b21	-0.3443232
124	0x3e7a1b32	0.24424437
125	0x3c2d041b	0.010560061
126	0x3f30e533	0.6909973
127	0x3e966801	0.29376224
128	0x3f2bc607	0.6709904
129	0xbeeae69c	-0.45879066
130	0xbe85d44a	-0.26138526
131	0x3e62e24f	0.22156642
132	0x3f35849e	0.7090548
133	0x3f3f4c26	0.7472557
134	0xbec2803b	-0.37988457
135	0x3e5c81e3	0.21533923
136	0x3f0dcb1d	0.5538805
137	0x3f1ec948	0.6202588
138	0x3f060f87	0.5236744
139	0xbf087c5e	-0.5331477
140	0xbdcd79d3	-0.10033002
141	0xbe91bd0f	-0.28464553
142	0x3f13aa79	0.57681996
143	0x3f0bdae1	0.5463086
144	0x3f61fe86	0.88278997
145	0x3f09710c	0.5368812
146	0x3eb5ca5f	0.3550596
147	0x3e51da2a	0.20493379
148	0xbe0a6983	-0.13516812
149	0xbeac439a	-0.33645326
150	0xbdd4d7a6	-0.10392694
151	0x3f1a7e79	0.6034923
152	0x3f355600	0.7083435
153	0xbe51f1c0	-0.20502377
154	0x3ceab21a	0.028649379
155	0xbe766648	-0.24062455
156	0xbd175c7a	-0.036953427
157	0xbdcc7ccf	-0.09984743
158	0xbd82d878	-0.063889444
159	0x3e33d478	0.17561519
160	0x3e78ae32	0.242852
161	0xbf16ccc6	-0.5890621
162	0x3e6fe547	0.23427306
163	0xbef37c84	-0.47555935
164	0xbe17c6f6	-0.14821991
165	0xbef7f9ca	-0.4843276
166	0xbf0066f5	-0.501571
167	0xbedead64	-0.43491662
168	0x3ef7c8ba	0.4839533
169	0x3ece97d0	0.403502
170	0x3ee0f901	0.43939975
171	0x3ef7e77c	0.48418796
172	0x3e360aec	0.17777604
173	0xbef38985	-0.47565857
174	0x3f35b43c	0.7097814
175	0x3e0c117e	0.13678548
176	0x3ed45135	0.41468206
177	0x3e34aca4	0.17643982
178	0x3f3234b5	0.69611675
179	0x3ed15957	0.40888473
180	0x3ef05683	0.46941003
181	0x3ecf689a	0.40509492
182	0xbeb43c75	-0.35202375
183	0x3ed8fbf3	0.42379722
184	0x3ddedf90	0.10882485
185	0xbebb7b06	-0.36617297
186	0x3ecb1cc0	0.39670372
187	0x3e508ead	0.20366926
188	0x3f233270	0.63748837
189	0xbf062218	-0.5239577
190	0xbe88139c	-0.2657746
191	0xbe08b27f	-0.13349341
192	0xbeb0f1f2	-0.3455959
193	0x3f53fb02	0.8280488
194	0x3ebb8f43	0.36632738
195	0x3e941eb6	0.2892968
196	0x3d79d353	0.06099255
197	0x3ed01b6f	0.4064593
198	0x3ef91dee	0.48655647
199	0x3e8dc404	0.2768861
200	0x3f1d617e	0.61476886
201	0x3f4a34f1	0.7898703
202	0x3e50ff65	0.20409925
203	0x3f3570c4	0.7087519
204	0xbdd68e3e	-0.10476349
205	0x3ea188f9	0.31549814
206	0x3ebd4d04	0.3697282
207	0x3ec2ac42	0.38022047
208	0x3f0747a3	0.52843684
209	0x3efc52ee	0.4928202
210	0x3edeaca8	0.434911
211	0x3efe8f44	0.49718678
212	0xbde0e658	-0.109814346
213	0xbe6faf72	-0.23406771
214	0xbea41891	-0.32049993
215	0xbe09b391	-0.13447405
216	0x3f173a91	0.5907374
217	0xbe9b5ce3	-0.30344304
218	0xbeb23dc0	-0.34812737
219	0xbeb1be75	-0.3471562
220	0xbe9f3bac	-0.31100214
221	0x3ee0a37c	0.4387473
222	0x3d44209e	0.04788267
223	0x3ebc6646	0.36796778
224	0xbe82a01f	-0.25512788
225	0x3ea6f0b7	0.32605526
226	0x3f56b862	0.83875096
227	0x3edb9673	0.4288822
228	0xbeab158d	-0.3341488
229	0x3ec896cb	0.39177546
230	0x3e259e46	0.16173658
231	0x3eaa68ff	0.3328323
232	0xbea884d4	-0.3291384
233	0x3ebdc202	0.3706208
234	0xbea33c52	-0.31881958
235	0x3f033290	0.5124903
236	0x3eb6f324	0.35732377
237	0x3aff97fa	0.0019500249
238	0xbe947de8	-0.2900231
239	0xbde143c4	-0.109992534
240	0x3edd0e05	0.4317476
241	0x3e6b87c5	0.2300101
242	0xbeb46e59	-0.3524044
243	0xbe86ddb4	-0.2634102
244	0xbe556b4f	-0.20841716
245	0x3f2465e5	0.6421798
246	0x3f02e25a	0.51126635
247	0x3e896023	0.2683116
248	0xbe0388cb	-0.12845151
249	0x3e6ba8f9	0.23013677
250	0xbe82c8ab	-0.25543723
251	0xbf1f24f1	-0.62165743
252	0xbe9bf3c3	-0.30459413
253	0x3e73fba5	0.23826464
254	0x3ed8c2bf	0.4233608
255	0x3e4632ff	0.19355391

l1.bias f4 [8]
0	0x3ea453e6	0.3209526
1	0x3ed57885	0.41693512
2	0x3f1e1c40	0.61761856
3	0x3ef387a8	0.47564435
4	0x3f3fa2b5	0.74857646
5	0x3ec78109	0.38965634
6	0x3f85de30	1.0458431
7	0x3f07a521	0.5298634

l2.weight f4 [8, 8]
0	0xbc455220	-0.012043506
1	0xbeaed691	-0.34148076
2	0xbe56f8a4	-0.20993286
3	0xbeb3a3c7	-0.3508589
4	0xbe2019a7	-0.15634786
5	0x3e4e01e2	0.20117906
6	0x3daa8240	0.083256245
7	0xbd0cbf68	-0.034362227
8	0x3f55d2ac	0.83524585
9	0x3f3a575a	0.7278954
10	0xbd5e2b34	-0.05424042
11	0xbe77fbd0	-0.24217153
12	0xbec2cbfb	-0.3804625
13	0x3f72233b	0.9458501
14	0x3f682749	0.90684944
15	0x3f922a3f	1.1419142
16	0xbec8e0ea	-0.39234096
17	0xbf5fb216	-0.8738111
18	0x3df8662b	0.12128862
19	0xbe9361fc	-0.28785694
20	0x3f3017f6	0.6878656
21	0x3ce0f386	0.027459871
22	0x3f9618a4	1.172627
23	0xbf0a5917	-0.5404219
24	0x3eb73ca2	0.35788447
25	0x3f42bee0	0.760725
26	0xbf57962c	-0.8421352
27	0x3f65db8e	0.8978814
28	0x3f4f4bd6	0.8097509
29	0x3f48be89	0.78415734
30	0x3f1d939d	0.61553365
31	0x3f3713c2	0.71514523
32	0xbd285d51	-0.04110462
33	0x3f04b76b	0.51842374
34	0x3f85b7d0	1.044672
35	0xbe84a002	-0.25903326
36	0xbf72526d	-0.9465702
37	0x3eb0eb46	0.345545
38	0x3efa70f6	0.48914307
39	0x3e3006f8	0.17190158
40	0xbf3add77	-0.7299418
41	0xbeb69b82	-0.35665518
42	0x3e5768ad	0.21036024
43	0xbf855ce8	-1.0418978
44	0x3f6a47bd	0.91515714
45	0xbf0259cb	-0.50918263
46	0x3f95f775	1.1716143
47	0xbe8492f0	-0.25893354
48	0x3f843a30	1.0330257
49	0xbf0b3cc6	-0.5438961
50	0xbf18fa58	-0.59756994
51	0x3fa57957	1.2927655
52	0x3f4dc06d	0.80371743
53	0x3eeaa51d	0.45829096
54	0xbf31715f	-0.69313616
55	0x3d151d93	0.036405157
56	0xbe6375a9	-0.22212853
57	0x3f2522d6	0.6450628
58	0x3fca829f	1.5821112
59	0x3f8e9d5a	1.114177
60	0xbf76bc98	-0.9638152
61	0x3e1c2010	0.15246606
62	0x3ecc6cf8	0.39926887
63	0xbe86b8a0	-0.26312733

l2.bias f4 [8]
0	0xbe76d529	-0.24104752
1	0xbe9764cf	-0.29569098
2	0x3f37c599	0.71785885
3	0x3e29e4b5	0.16591151
4	0x3e9d835c	0.30764282
5	0x3f0862e8	0.5327592
6	0x3dcd17b6	0.10014288
7	0x3f1c3a8e	0.6102685

l3.weight f4 [7, 8]
0	0x3d017f68	0.031615645
1	0xbf9890dd	-1.1919209
2	0xbef1081d	-0.47076502
3	0x3ea907f8	0.33013892
4	0xbf353319	-0.70781094
5	0xbf34ebd7	-0.70672363
6	0x3ef7c1da	0.48390085
7	0xbf96fefb	-1.1796564
8	0x3e9b409d	0.30322734
9	0x3e91145a	0.2833584
10	0xbf8cf3e9	-1.1011935
11	0x3ee7e6fc	0.45293415
12	0xbf19a70e	-0.6002053
13	0xbf52b3d1	-0.8230563
14	0xbdec9d70	-0.11553466
15	0xbf46e7e4	-0.77697587
16	0xbe483b22	-0.19553807
17	0xbf7e94ca	-0.99445784
18	0xbf497da4	-0.7870734
19	0xbf6ac802	-0.9171144
20	0x3ef33484	0.47501004
21	0xbf9d3f34	-1.2284913
22	0xbf98340f	-1.1890887
23	0x3f18e3ed	0.5972279
24	0x3eabb1db	0.3353413
25	0xbee2c0a5	-0.442876
26	0x3f1fc71a	0.6241318
27	0x3e4b26cf	0.19839023
28	0xbf2dc679	-0.6788097
29	0x3f7ff9ea	0.99990714
30	0xbfbada1c	-1.4597812
31	0xbf8023fd	-1.0010983
32	0x3eaf86f1	0.3428264
33	0xbf8dbe87	-1.1073769
34	0x3e9c1587	0.30485174
35	0x3e80590b	0.25067934
36	0xbf2ac734	-0.6671021
37	0xbe889c92	-0.26681954
38	0xbe736f70	-0.23772979
39	0x3e144de6	0.14482841
40	0x3e97eb61	0.29671767
41	0xbe77fb6b	-0.24217002
42	0x3f121f42	0.57078946
43	0xbf6caa26	-0.92447126
44	0x3edb9812	0.42889458
45	0x3e16f8ed	0.14743395
46	0xbf89f166	-1.0776794
47	0xbdaad2b7	-0.08340972
48	0xbe459194	-0.19293815
49	0x3f09a4f0	0.537673
50	0xbf007030	-0.50171185
51	0x3e8efb9a	0.27926332
52	0x3eb86f6c	0.36022508
53	0xbf84908d	-1.0356613
54	0xbfa8db64	-1.3191953
55	0xbdb5bd6b	-0.08874019

l3.bias f4 [7]
0	0x3d761e6a	0.0600876
1	0xbef60761	-0.48052505
2	0x3ee8b8f7	0.45453617
3	0x3e6eba55	0.23313268
4	0x3e58ec38	0.2118386
5	0xbebfd4fb	-0.3746718
6	0xbf039585	-0.51400024
